FreshnessDetector.pt (torch_old, 73739 bytes, 8 tensors)

conv1.weight f4 [16, 3, 3, 3]
00000000: ee45 e7bd 206b 8e3d 7d64 9ebd 0e89 3f3d
00000010: fca6 18be 27bb dabe fdd8 91be 4d95 8bbe
00000020: 5913 9abe 5dd2 2e3e 9084 193e eb56 933e
00000030: 3597 d23e 554f 6b3e a299 a1bd 0010 823d
00000040: cc30 bb3e fdad 823e d678 7ebe 71f7 913d
00000050: f7ab ec3d dd21 a1bd 39f1 35be 1356 85be
00000060: 48b5 dfbd 29b2 473d dd61 e6bd c888 ecbd
00000070: 202e 473e 1611 3d3e 0c46 053e 51e6 b3bd
00000080: 1812 0cbe 8696 a3bd fc42 e7bb 5e12 4ebd
00000090: 5c0b 3a3c f5b8 a63c 5fba 313e e570 4c3e
000000a0: a4d9 803d 39d5 ed3a cfd7 39bd dc77 123e
000000b0: ff54 ba3c ba0e adbb 07ee 17bd 690e 6d3c
000000c0: 2222 253e 768f c6bd 0e24 0bbe 52e3 0abd
000000d0: c22d 2fbd 62a4 c03d 0eda 093e bdd0 0fbc
000000e0: af67 173e bbd3 453c 94ca 5c3e c0b2 f5bd
000000f0: 97b7 063e a119 d63d 20ec 773e 3333 50be
00000100: 0371 edbd d518 c7bd ced3 293d 8784 89bd
00000110: 894d 1f3e 1294 26bd 4dfd 143d 84ec ed3d
00000120: cce4 1d3e bc5b adbc cec7 70bd 8028 23be
00000130: 3bf7 d1bd 1e6c e23c cd0b 053e a83c ecbd
00000140: 28eb 923d df79 3dbe 6f5c b23d b0c1 2c3d
00000150: 1d3b b7bd fe07 71be ab3d 4e3d 3aad ffbd
00000160: 9552 b2bd 6b80 183e 1e97 863e 24dd 1c3c
00000170: 770c 2cbd c858 043e fa89 693e 530f 2b3d
00000180: d1d7 313e 633d 463e 56cc ecbb 89ca c1bd
00000190: c894 76bd fb92 21be 45a9 1a3e c9e5 de3d
000001a0: 7c1c 80be 9b4e fbbb 3bb2 893d ed28 e0bd
000001b0: f800 14be dc22 1dbe 350b 1a3e 0a88 1c3e
000001c0: 6635 6c3d b6c8 623e 0525 a53d f39e dc3d
000001d0: 036a 09be 9cfa 473e 2247 2f3d 715e c9bd
000001e0: 7124 20bd edde 7e3e 3091 1cbe 44fc 803d
000001f0: 88f8 813d 72a3 97bd 6972 00bd 039f 3e3e
00000200: 7df5 2ebd 45dd 813e 0035 623e 3fe0 fe3d
00000210: 898b 12be 22b8 4b3e aa6a 17be 291a 463e
00000220: 843b c03b 055e 56be 6a3a 1d3e e931 1abe
00000230: 2092 553d fc49 013e 83e2 abbd 8a19 a63d
00000240: c10f 72bc 452f 403b a0cd fbbd 6c84 21bd
00000250: f700 3dbe 5455 e33d 7100 603d 82fc bebb
00000260: 52ab 8e3d 3741 603e b0ef 0a3d 417c 5d3e
00000270: b3c6 a7bd 236e 8fbd 1ca9 a1bd b3ce 02bc
00000280: 6f36 93bd 55cd f5bd cbdd 74be 0c3f 23bb
00000290: cdb9 803e 571a a2bd 86f6 b83d 1972 20be
000002a0: 1a5b a1bd dbd8 363d 1a75 ee3d 8730 7ebd
000002b0: de8f 503e 5d13 733e fbfe 91bd 7238 9d3e
000002c0: ad0f 6abe 8131 ad3d 799c debd 9515 2f3e
000002d0: ba0b e3bd ad65 e5bd 087a 6c3c c387 fe3d
000002e0: b463 413c e7c4 98be b2a5 13bd 871b 09bd
000002f0: 2ddf 893a 5f3f 223e c74d dcbd dae9 c43d
00000300: d36b b23d d466 043e 36db 1dbc 09a9 0a3c
00000310: 4d2b 2c3e 5b57 72be a341 a93c c202 be3c
00000320: d674 d53d 77f0 a7bd 6760 183e a5fe c2bd
00000330: 50a7 f13d 5e29 adbd 2392 003e 0d30 26be
00000340: 64a0 753d fa18 f0bd b186 75be 7c48 cfbe
00000350: d705 713d 8541 bdbe 3451 c1be 886f 983d
00000360: 7e60 023e 0cad 11be 7698 35bd d3c9 32be
00000370: b55c cc3c a764 04bb 9c78 333e 3578 90bd
00000380: 70d0 153e 1b31 2f3e 9d35 49bd 5ad9 a9bd
00000390: 9166 77be 4dad aabb ba1a 26be 1870 213e
000003a0: 9cf9 92be bdef a33d c79d 203e 5bc8 e9bc
000003b0: c82a e73d 24a0 57bd 73ad 3b3e 5137 ea3d
000003c0: c80b 443e 425f d8bd 47af e73d cee1 163e
000003d0: fdc6 0abe 48e0 33bd 0161 e4bd 532d e63d
000003e0: 90f3 8fbe 7218 ddbd 3c5e 5cbd e902 cdbd
000003f0: a82b 81bd f756 15be 50cf 283e 9861 3e3e
-0.11292635 0.06954026 -0.0773401 0.046761565 -0.1490745 -0.4272091 -0.2848586 -0.27262345
-0.30092886 0.17072435 0.14991975 0.2877725 0.41130987 0.22979482 -0.07890631 0.06350708
0.36560667 0.25523368 -0.24850783 0.07127274 0.11556237 -0.07867787 -0.177678 -0.26042232
-0.109232485 0.04875389 -0.11249135 -0.115495265 0.19451189 0.18463549 0.13015002 -0.08784164
-0.13678777 -0.079876944 -0.0070575457 -0.050310485 0.011355247 0.020351866 0.17356251 0.19964941
0.06291512 0.001814521 -0.045371827 0.14303535 0.022745607 -0.0052812966 -0.037092235 0.014468768
0.16126302 -0.09695332 -0.13587973 -0.033908196 -0.042768247 0.094063535 0.13462088 -0.008777794
0.14785646 0.012074406 0.21561652 -0.119969845 0.13155971 0.10454107 0.24211168 -0.20332031
-0.11593821 -0.09721533 0.04146176 -0.06714731 0.15556921 -0.040668555 0.03637438 0.116173774
0.1541931 -0.021161906 -0.0587843 -0.15933418 -0.102522336 0.027639445 0.12992783 -0.11535007
0.07173759 -0.18503521 0.087090366 0.042176902 -0.08946822 -0.23538205 0.05035178 -0.12484212
-0.087071575 0.14892738 0.26287168 0.009574208 -0.042004075 0.12924492 0.2280654 0.04176266
0.17367484 0.19359355 -0.007226507 -0.09462459 -0.060200483 -0.15778725 0.15103634 0.10883672
-0.25021732 -0.0076692826 0.06723448 -0.10945306 -0.14453495 -0.15345329 0.15043338 0.1528627
0.057668112 0.22146878 0.080637015 0.10772505 -0.13419347 0.19529194 0.042792447 -0.098324664
-0.039097253 0.24889727 -0.1528976 0.06298116 0.06346232 -0.074042216 -0.03135911 0.18615346
-0.042714585 0.25364128 0.2209053 0.12445115 -0.14311041 0.1989446 -0.14786783 0.19345917
0.00586647 -0.20934303 0.15354314 -0.15058102 0.05214131 0.12625879 -0.08392813 0.0811034
-0.014774264 0.002932505 -0.12295079 -0.039432928 -0.184574 0.111002594 0.05468792 -0.005828441
0.069662705 0.21899877 0.03391999 0.2162943 -0.08192196 -0.07003429 -0.07893583 -0.007983851
-0.07188117 -0.120020546 -0.23912732 -0.0024909405 0.25141755 -0.0791518 0.090313956 -0.15668525
-0.07878704 0.044640403 0.11643429 -0.062057998 0.20367381 0.23737855 -0.07128712 0.30707127
-0.22857542 0.08456708 -0.108696885 0.17098077 -0.11086221 -0.11201034 0.014433391 0.12428238
0.011803556 -0.29837725 -0.03604669 -0.033473518 0.0010518782 0.15844487 -0.10757022 0.09614916
0.08711972 0.12929851 -0.0096347835 0.008463153 0.16813393 -0.23666136 0.02066118 0.023194674
0.10422675 -0.08200162 0.14880525 -0.09521226 0.117994905 -0.08455156 0.12555747 -0.16229267
0.059967414 -0.11723514 -0.23977162 -0.4048499 0.05884346 -0.3696405 -0.37757266 0.07443148
0.12732121 -0.14226168 -0.04433485 -0.17459802 0.02494655 -0.0020201595 0.17526478 -0.07054178
0.14630294 0.17108576 -0.049123395 -0.0829341 -0.2416022 -0.0052086473 -0.16221133 0.15765417
-0.28706062 0.08004711 0.15685187 -0.02853792 0.11287457 -0.052642956 0.18327884 0.11436332
0.19145119 -0.10565044 0.113127284 0.14734575 -0.1355247 -0.043915063 -0.111513145 0.11239114
-0.2811551 -0.10795678 -0.053800806 -0.10010321 -0.06307155 -0.14583956 0.16485333 0.18591917

conv1.bias f4 [16]
00000000: 4762 7e3e eca2 36bd b6b2 77bc fc58 a8bd
00000010: 7d9a 81bd 7d19 7b3d d38a 043d bec1 84bd
00000020: 6955 28be f316 213e f008 96be f5f9 62bc
00000030: 5718 8abc 8234 df3e 5616 103e 0294 ce3d
0.24842177 -0.04458897 -0.015118292 -0.082200974 -0.063282944 0.061303604 0.032358956 -0.06482266
-0.16438831 0.1573141 -0.29303694 -0.01385354 -0.01685731 0.43594748 0.1407102 0.10086824

conv2.weight f4 [8, 16, 3, 3]
00000000: ae4d 8bba 12bf 223d 0e06 e03b aa46 ce3c
00000010: 5a70 9c3d 0de4 653d aae5 86bd a263 373d
00000020: 4ded 353d fc52 513c 1585 debc e91d 96bd
00000030: d371 73bd 192f aebd 90fc 373c 52c7 94bd
00000040: 3d95 d0bc 28db 853d ae1c a0bd 72d0 c6bd
00000050: 9f1c 60bd 2eb9 04be 182b ecbb 31e9 b6bd
00000060: 6f71 f2ba 7583 123d 3ee2 0ebd 3c2e 07bd
00000070: 0e3f 74bc 835c 603b 8370 d4bd 9650 46bc
00000080: 6b35 2f3c 0a27 903d 92e9 6bbd 9165 03bd
00000090: 5332 04bd 4374 77bd 0448 00bc 227b cfbd
000000a0: fd3e 03be 6a62 a0bc 0b9c cc3c b131 40bd
000000b0: 857a a63d e9a1 9dbc 2288 4b3d 4b2f 3cbd
000000c0: 6dad 62bc ca56 4bbd 7769 40bd 87b8 6e3d
000000d0: aaf0 9bbd a473 7a3c ece8 81bd 65f5 42bd
000000e0: b21b a13d 63ea 06bb ffd6 60bd fc68 b33c
000000f0: 478d 13bd 8059 f5bb 6318 03bd de75 e43d
00000100: 3a3f 093e 7b98 d03d 1229 163e f2d3 75bb
00000110: d7f1 633d 0da6 77bd 75b6 2fbd 3b98 d9bd
00000120: cbc5 dabd 6892 86bd d000 393b 9991 8e3c
00000130: 98d5 a0bd a4e3 033d 9787 6cbd 2368 ecbb
00000140: 3235 2b3c 316f 643d b977 143d 4f0d dbbc
00000150: c2a9 ab3d 4123 72bd 69e6 0e3c 9917 f7bb
00000160: 500a 333d be3f 6f3c e040 5c3d d6c5 10bd
00000170: 099f 4b3c 9066 8e3d 9a73 d1bb d1e6 b63d
00000180: 4b6c a2bd 322b 9dbd d180 53bd 786e aa3d
00000190: 20b5 f33c ca57 ad3d 4673 32bd 73b4 913d
000001a0: 6643 a53d 4baa 9abd 8ed7 a3bd b8cd 8d3c
000001b0: 51d8 c3bc 66ff 873d a60b f4bc e64c cabd
000001c0: a2b9 98bd 4ee0 81bc 2215 b0bc d102 c3bd
000001d0: 89c2 debc 1d57 88bd 4b52 a1bd 5fbf 5d38
000001e0: 5c15 50bd a2e9 f2bc 3493 8cbb 66fa 4f3d
000001f0: 030a b73d e0bc 83bc b80f 82ba aec6 38bd
00000200: f5b9 64bb a2cc 17bd 067a 17be f3d6 1f3d
00000210: db1e c4bd 7c8b cabd 9c9f a7bd f81e 333d
00000220: 6684 ef3d 23ec 773c 2620 67bc 366e a2bc
00000230: 6af3 43bd c236 50bd da1e f43c e517 083e
00000240: b38d a93d 624b 49bd 4a05 0c3d 2337 41bd
00000250: 53f4 e33b ee46 d9bd addc aa3d 88f1 bebd
00000260: 0fd0 f8bc 6d23 f63b 9324 573d 7c5a 743c
00000270: 40ed 6d3d 4f3d 593d 15b7 02bc f3af 0bbd
00000280: ed68 9ebd 3914 bdbd 4765 eabd 6747 8f3c
00000290: 2af4 eabd b630 68bd 6f13 5abc 5894 7e3b
000002a0: e569 683c f4b3 fabc cb32 84bd 78a3 ccbd
000002b0: 3471 1dbe 05f7 01be 4180 febd 9894 29be
000002c0: 2950 16be 789d 19be f7c8 c6bd dad2 d8bd
000002d0: 1659 033c e9f3 6b3d fa49 b63b 3678 3fbd
000002e0: 5fca 833d 39f6 893b 7278 ab3d 5594 54bc
000002f0: 78e4 4a3d 1428 223b 1444 3e3b 4058 5ebd
00000300: 66d7 3bbd 4c0e 5d3d 6b95 d0bc a63b db3d
00000310: eab3 133d d091 0ebc a98d 53bd d33d 44bd
00000320: 4df1 8bbd f364 3b3d 40a0 5b3d 9c99 0b3c
00000330: dd04 6c3d 6e85 d7bb d498 92bd 4346 3dbe
00000340: 6328 6dbe 1915 56be 891b 5bbe aa09 77be
00000350: 5da2 46be 69cb cdbd c2fa 2ebe 1d61 4fbd
00000360: 981f 603e 8533 043e a81f 6e3e c795 193e
00000370: 25bd af3d acf9 1c3e 789a c93d 961a 373e
00000380: b790 0e3e 5755 973d 7497 0f3e a022 853d
00000390: 7bf4 2d3e 4d3c 353d 577a db3d e53d 113d
000003a0: 62af 213e dd50 da3d a639 eabc 796e 7cbd
000003b0: 8e4c 6d3d b8c3 13bd 0c05 ce3b e564 e63c
000003c0: b435 3cbc b85d 5d3d ea8d 6c3d 241e 77bd
000003d0: d36f 0dbd 0a81 66bc 7b3b 013d b63e 64bd
000003e0: 8def febd d7cc ecbd fc23 913b 4631 81bd
000003f0: c7f3 24be 97c4 84bd c4ff 73bd 4e5d 12be
-0.0010628009 0.039733 0.0068366593 0.02518018 0.07638617 0.05612569 -0.06586774 0.04477275
0.04441576 0.012776133 -0.027163068 -0.07329924 -0.059434723 -0.08505077 0.011229649 -0.0726458
-0.025461787 0.06535941 -0.0781797 -0.097077265 -0.054714795 -0.12961265 -0.0072072856 -0.089311965
-0.0018496941 0.0357699 -0.03488373 -0.033003077 -0.0149076115 0.0034234829 -0.103730224 -0.012104174
0.010693888 0.07038696 -0.057595797 -0.032079283 -0.032274555 -0.06041361 -0.00782967 -0.101309076
-0.12816997 -0.019578177 0.02497675 -0.04692239 0.081288375 -0.019242244 0.049690373 -0.04594354
-0.013835293 -0.049643315 -0.04697558 0.058281448 -0.076142624 0.01528636 -0.063432544 -0.047597308
0.078666106 -0.0020586483 -0.054892536 0.021900646 -0.036023404 -0.007487476 -0.03200568 0.11155294
0.13403025 0.10185333 0.14664105 -0.0037510362 0.05565056 -0.060461093 -0.042898614 -0.10624739
-0.10682257 -0.065708935 0.0028229244 0.01740341 -0.0785324 0.032199517 -0.057746496 -0.0072145625
0.0104496945 0.055770103 0.03624699 -0.026739744 0.08381988 -0.059115652 0.008721926 -0.007540655
0.043711007 0.0146026 0.053772807 -0.03534492 0.012428054 0.06953156 -0.0063919546 0.089307435
-0.079308115 -0.076742545 -0.05163652 0.083218515 0.029749453 0.0846401 -0.043566965 0.07114496
0.08069496 -0.07552012 -0.08000098 0.017310008 -0.023906859 0.0664051 -0.02979071 -0.098779485
-0.07457282 -0.015854027 -0.021494452 -0.095220216 -0.027192371 -0.066572405 -0.07877024 5.2868734e-05
-0.05080162 -0.02965242 -0.004290009 0.050775908 0.089374565 -0.016081274 -0.0009922897 -0.04511135
-0.0034900878 -0.037060387 -0.14792642 0.03902335 -0.09576198 -0.09889886 -0.0818474 0.043730706
0.11695175 0.015131983 -0.014106786 -0.019827943 -0.04783956 -0.05083347 0.029799867 0.13290365
0.0827898 -0.049144156 0.03418473 -0.047171723 0.006956616 -0.10609232 0.08342872 -0.09323412
-0.030372648 0.0075115473 0.052525114 0.014914151 0.058087587 0.053036984 -0.0079782205 -0.034103345
-0.07734857 -0.09232373 -0.11445098 0.017490102 -0.11472352 -0.05668708 -0.013310297 0.0038845744
0.0141854035 -0.030603386 -0.064550005 -0.09992117 -0.15375215 -0.12691887 -0.12426806 -0.1656059
-0.14679016 -0.15001476 -0.097063 -0.10587092 0.008016845 0.057605658 0.005563018 -0.0467455
0.064350836 0.00421026 0.083725825 -0.012974818 0.04953429 0.0024743127 0.0029032277 -0.05428338
-0.045859717 0.053968713 -0.025461873 0.107047364 0.03606025 -0.008701757 -0.05164877 -0.047910523
-0.06833134 0.04575057 0.053619623 0.00852051 0.057621825 -0.0065771854 -0.07158056 -0.18483834
-0.23159938 -0.20906486 -0.21397223 -0.2412478 -0.19397874 -0.10048563 -0.17087844 -0.050629724
0.21887052 0.12910278 0.23254263 0.14998542 0.08580998 0.15329617 0.09843916 0.17881235
0.13922392 0.07389324 0.14022619 0.06500745 0.16987793 0.04424696 0.10716694 0.035459418
0.1578956 0.10659955 -0.028591942 -0.061628792 0.057934336 -0.036075324 0.0062872227 0.028124282
-0.011487413 0.054044455 0.057752527 -0.06033148 -0.034530472 -0.014068851 0.031550866 -0.05572387
-0.124480344 -0.115625076 0.0044293385 -0.06308226 -0.16108619 -0.06482809 -0.05957009 -0.14293405

conv2.bias f4 [8]
00000000: 6ad9 043e b24c 5ebe 8465 093d 3bbd 5a3d
00000010: 96f8 cd3d 96e9 5cbe 3712 6e3d 6f51 9a3b
0.12973562 -0.21708944 0.03354408 0.05340312 0.1005718 -0.21573481 0.05812284 0.0047094147

fc1.weight f4 [32, 512]
00000000: b405 423c 3ca8 7abc 1c54 26bd d85e a23c
00000010: 90f5 11bc 251d 16bd d8fc 673c 761c 503c
00000020: fc0c 12bc 840a 9dbc 3b01 7c3c da02 0bbd
00000030: ff97 ec3c a9b3 03bd 701d b13c 58e6 45bd
00000040: d3e7 15bb 5d6b 42bc 9598 463d 7888 d3bc
00000050: 2078 46bc 2a86 853c 4aa0 83bc 0024 38bd
00000060: 4733 02bd d032 14bd 60e7 593d 9816 c6bc
00000070: af88 26bd 2f81 513c c38a 0ebd b843 2dbd
00000080: a4fa 8eba cdb3 5bbb 5a83 b13c 8359 ccbc
00000090: d431 0d3d 7bfe fdbc 8f80 153c 2bb6 503a
000000a0: c178 293d 18c8 1f3d 3f10 c73c fb4a cbbc
000000b0: 08c8 123d cf7c a1bc 2088 80bc 5168 d53c
000000c0: 4a2c 90bc cd19 d83c 0acd 47bd ee41 793c
000000d0: 676e a23c 755c 01bb 6333 a13c aabe c33c
000000e0: d925 d6bc 6023 953c 7e9f e5bb 4634 1cbd
000000f0: d619 14bd 622f b33c edc5 863c ed51 0a3d
00000100: 68c6 d13c 72a3 19bd 9a3f a43c b4a2 be3c
00000110: 5f6b d83b d011 403c 9120 eabc dbd0 163b
00000120: f6c5 b139 b4c6 003d 53a3 b5bb 8684 bc3c
00000130: 4a24 08bc d6a8 93bb 035b 75bc 539a 47bd
00000140: a359 9fbb 8a93 033d 4c72 23bc 4096 25bc
00000150: 27b6 a33c 14d2 cc3c 82a2 103d 1612 733c
00000160: 3412 cbbc b978 953c 791d 383d 0caf 493d
00000170: 935e 373d 301b 993c 95d6 88bc a0d5 14bd
00000180: 9f5c 32bd 5cd9 b3ba aeb1 9d3c 2f84 9f3d
00000190: fdfc 8b3d c3e6 2abc 401d b13c 0f2e a1ba
000001a0: 7c5a 85bc 83af 923a 7d13 a2bb a1bf 343c
000001b0: d3e5 5b3d fe49 333d 97ae fd3c 33a2 473d
000001c0: 4824 223d 5576 3f3d 4220 423a bf0f 87bc
000001d0: 9871 553b ab7b 033d 2b2f 7f3c dfa3 743c
000001e0: 376e 23bd 5196 273d 6dce 4b3d 349d cc3c
000001f0: b39f c83c ad3f ed3c dde4 fbbc cd0d 703c
00000200: 4692 e33a ed99 7dbc e75d eebb da2e 9a3c
00000210: 9301 093d b2a7 35bd 1cf6 0bbd 508a dbbc
00000220: 762d 41bd b7a4 a1bb f5a1 2bbd 1409 39bd
00000230: 0c91 e03b 196f 323d 0e6f 74bc a4e0 52bd
00000240: b08d 05bb 5747 1b3d 9358 82bc 4acb 53bd
00000250: 2781 6cbd 608c b0bc e133 cf3c 1cf1 7ebb
00000260: 5a08 4f3c 6f71 fb3c f3e0 eabc f149 0cbd
00000270: 9c8d acbc 0627 ae3c 4fb8 15bd b902 443b
00000280: 0898 79bd 4c34 e9bb 8603 483b a94e d63c
00000290: a190 f83c b431 cfbc bbf9 0c3d e00d 82bc
000002a0: fbdb 623c f906 a33c ed0d 29bd 9d38 24bd
000002b0: ff17 10bd e309 4abd afd5 173d 2e32 963c
000002c0: e834 a3ba 5fb5 e6bc 10c2 35bd fd31 663a
000002d0: 26aa 03bd 9c09 fbbc 8eb1 6b3c df6e 243d
000002e0: a20b 1a3d 0bb1 073c 0bba 01bd 2e7c c73c
000002f0: 7822 3bbb 39b3 b53b b444 1c3d f731 dfbc
00000300: bf3b 553b 0645 56bd ed86 09bd 998e 3fbd
00000310: 7068 07bc 76f7 5a3c 81a0 ea3c bdc3 ccbc
00000320: 827e 4d3c d578 943c 4110 943a 481c 9abb
00000330: 0adf 533d 58f9 043c 13c2 4e3c 68e1 dc3c
00000340: 3e70 a93c 9f4d 32bd 79d3 063c 83ff 0bbd
00000350: ae61 483c 39dd 1b3d a4be eb3b 66be 57bc
00000360: 5939 c6bc 8260 2b3d ee53 7ebc 3b86 32bd
00000370: 7b51 243c 41ff a03c 7949 fabc 061f 0dbd
00000380: 8280 f23a da8a 78bc 1de4 b53c 3491 99bc
00000390: 0617 c6bb 9b76 00bd 8234 c43c 8f1d 0cbd
000003a0: 1687 34bd 07f3 40bd 5dcb 113d d2c8 f1bc
000003b0: cf61 cc3c 6728 033d fb84 e3bc 1527 1cbc
000003c0: d8c0 783c ce01 e5bb 1957 293d ff61 133c
000003d0: a7cb 683c 9425 fa3c 6130 cabb cbff 0bbc
000003e0: b4a1 2cbc 55f5 46bd de93 0fbc d0db f6bc
000003f0: 8bcb c53c 0f65 10bd d6d4 803c 0abb 1dbc
0.01184218 -0.015298899 -0.040607557 0.019820616 -0.008908644 -0.03664889 0.014159404 0.012702098
-0.0089142285 -0.019170053 0.015381153 -0.033938266 0.028881071 -0.03215376 0.021620482 -0.048315376
-0.0022873774 -0.011866418 0.048485357 -0.02582191 -0.012113601 0.016299326 -0.016067643 -0.044956207
-0.031787183 -0.03618127 0.053199172 -0.024180695 -0.040657695 0.012787147 -0.034800302 -0.04230091
-0.0010908437 -0.0033523918 0.021669079 -0.024945026 0.034471348 -0.031005135 0.009124889 0.00079617155
0.041374926 0.039009184 0.024299739 -0.024816027 0.035835296 -0.019712834 -0.01568991 0.026050719
-0.017599244 0.02637949 -0.048779525 0.015213473 0.019828035 -0.0019738947 0.019677823 0.023894627
-0.026141094 0.018205345 -0.0070075383 -0.03813579 -0.03615745 0.02187318 0.0164518 0.033769537
0.025607303 -0.03750939 0.020049859 0.023270942 0.0066045965 0.011722997 -0.028579982 0.002301267
0.00033907563 0.031439498 -0.0055431514 0.02301241 -0.008309433 -0.004506211 -0.014975312 -0.04873116
-0.0048629805 0.032123126 -0.009975981 -0.010106623 0.019984318 0.025002517 0.03531123 0.014835855
-0.024788953 0.018246042 0.044949982 0.049239203 0.044767927 0.018689722 -0.016703883 -0.03633654
-0.04354536 -0.0013721394 0.019249763 0.07788884 0.06835363 -0.010430994 0.021620393 -0.0012297052
-0.016278498 0.0011191223 -0.004946171 0.011032016 0.053685974 0.043771736 0.03096704 0.04873867
0.03958538 0.04674371 0.00074053195 -0.016487 0.0032568928 0.03210036 0.015575211 0.014931648
-0.03990003 0.040914837 0.04975741 0.024977304 0.024490213 0.028961027 -0.030748779 0.014651728
0.0017362318 -0.015478593 -0.0072743776 0.018821169 0.033448767 -0.04434938 -0.034170255 -0.026799351
-0.047162496 -0.0049329656 -0.0419025 -0.045174673 0.0068532284 0.043562982 -0.014919056 -0.051483765
-0.0020378642 0.03790983 -0.015911376 -0.051707543 -0.057740357 -0.021551311 0.025293292 -0.0038901037
0.0126362685 0.030693738 -0.028671717 -0.034250204 -0.021063618 0.021258842 -0.036552723 0.002990885
-0.060936004 -0.00711683 0.0030519678 0.026160555 0.030342402 -0.025292255 0.03441785 -0.015875757
0.013846393 0.019900786 -0.041273046 -0.040093053 -0.035179134 -0.049325835 0.03706902 0.018334474
-0.001245168 -0.028162656 -0.044374526 0.00087812525 -0.032144688 -0.03064423 0.014385594 0.040144797
0.03760875 0.008281956 -0.031671565 0.024351206 -0.002855448 0.0055450466 0.038151458 -0.027245505
0.0032536832 -0.05231192 -0.03357594 -0.04676685 -0.008264646 0.013364663 0.028640987 -0.024995679
0.012542369 0.018124023 0.0011296348 -0.0047030784 0.05172638 0.008116089 0.012619513 0.02696295
0.020683404 -0.043531056 0.00822913 -0.03417922 0.01223032 0.03805277 0.007194357 -0.013167953
-0.024197267 0.041840084 -0.01552294 -0.043585043 0.010029192 0.019652965 -0.030552613 -0.034453414
0.0018501433 -0.015169824 0.0222035 -0.018745996 -0.006045225 -0.03136311 0.023950819 -0.034207877
-0.04407414 -0.04710677 0.035594333 -0.029514704 0.024948983 0.032020953 -0.027773371 -0.009530802
0.015182696 -0.0069887405 0.04134283 0.008995532 0.014208711 0.030535497 -0.006170318 -0.0085448725
-0.0105366 -0.04857381 -0.008763282 -0.030134112 0.024144908 -0.035252627 0.015726488 -0.009627113

fc1.bias f4 [32]
00000000: 1554 07bd de09 89bb b506 8b3d 07f4 cdbc
00000010: 2279 f9bc 322e 933c 4a30 6fbd c06d c63b
00000020: 6fa7 1b3d f976 583d 69c2 febc 19f3 b8bb
00000030: f588 46bd 2e40 7c3b d5d7 fd3c aab7 08bd
00000040: 53fd 9f3c 5d0d 2abd fdab 653d 0caf 3eb8
00000050: 55ea abbc 05e5 5a3c 25e4 e33c cbc9 bb3c
00000060: 3ec5 023c 7fba 343d 87c7 a5bc 3744 3e3d
00000070: 2bc2 dbbc 5c9f d33c c257 113d acbd f7bc
-0.03303917 -0.0041820845 0.06788389 -0.025140775 -0.030453268 0.017966364 -0.05839566 0.0060555637
0.038001474 0.052847836 -0.031098561 -0.005644214 -0.048470456 0.0038490403 0.030986706 -0.03337828
0.019529974 -0.04151665 0.056072224 -4.5462555e-05 -0.020985762 0.013360267 0.027818749 0.02292337
0.0079815965 0.04412317 -0.020236744 0.046451773 -0.026825985 0.025832824 0.035484083 -0.03024181

fc2.weight f4 [2, 32]
00000000: 3289 a7be fc14 833d 5384 c73e 71e7 963c
00000010: 08eb 4cbe 5442 a23e 8ff4 b3be 95ff b53e
00000020: 68fd e7bb 26b6 363e 7b10 40be 5af7 e8be
00000030: 7956 c7be a0f5 5cbe 3916 923e b538 c03c
00000040: b3c2 c33e e955 06be 3070 063f 66ba 993d
00000050: 2db3 ec3d 467a 8c3d 4f8d 973c 170c f93d
00000060: 06ff 2f3e fb0b 823e d139 cb3e 5219 243e
00000070: 3e36 003c 2bca 033e f713 d33e 1981 39be
00000080: 52a4 993d 4934 683b 050d c6be 6bde 5c3e
00000090: d7ff 013e 602f 57be 91d2 ac3e c7b4 d1be
000000a0: 89fe b23d 6b74 32be ed85 4c3e a401 bd3e
000000b0: 4277 bc3e 372a 973e efdb 51be 27d1 b6bc
000000c0: 942b b3be 141f 9d3e c19a e4be bf1a 813b
000000d0: de1a 29bd 010e f03c 221d d33d b06b 54be
000000e0: 2f71 47be 7080 91be 1557 6ebe cb15 08bd
000000f0: 4378 f13d e744 fd3d 71e6 7fbe 2a15 7b3e
-0.3272186 0.06400487 0.38968143 0.018420907 -0.20011532 0.3169123 -0.3514752 0.35546556
-0.007079769 0.17842922 -0.18756287 -0.45501214 -0.3893316 -0.21578074 0.2853258 0.02346454
0.3823448 -0.1311871 0.52514935 0.07506256 0.115576126 0.06859259 0.018499998 0.12160509
0.17187127 0.25399765 0.39692548 0.16025284 0.007825432 0.1287009 0.4122617 -0.18115653
0.07502045 0.0035431555 -0.38681808 0.2156922 0.12695251 -0.21014166 0.337544 -0.40958235
0.08739955 -0.17427222 0.19972964 0.36915314 0.36809736 0.29524395 -0.20494054 -0.022316528
-0.34994185 0.30687773 -0.44649318 0.003939956 -0.04128539 0.029303553 0.10308291 -0.20744205
-0.1947677 -0.28418303 -0.23275407 -0.03322391 0.11790516 0.12366658 -0.2499025 0.24519792

fc2.bias f4 [2]
00000000: 85c1 bd3b e0ea a0bc
0.0057908916 -0.019643247
